…
======================>..] - ETA: 0s24064/24545 [============================>.] - ETA: 0s24545/24545 [==============================] - 3s     

confusion_matrix:

[[17330   132]
 [  224  6859]]
('Precision:', 0.9811185810327564)
('Recall:', 0.9683749823521107)
_________________________________________________________________
Layer (type)                 Output Shape              Param #   
=================================================================
reshape_1 (Reshape)          (None, 5, 167)            0         
_________________________________________________________________
masking_1 (Masking)          (None, 5, 167)            0         
_________________________________________________________________
lstm_1 (LSTM)                (None, 5, 128)            151552    
_________________________________________________________________
dropout_1 (Dropout)          (None, 5, 128)            0         
_________________________________________________________________
lstm_2 (LSTM)                (None, 64)                49408     
_________________________________________________________________
dropout_2 (Dropout)          (None, 64)                0         
_________________________________________________________________
dense_1 (Dense)              (None, 32)                2080      
_________________________________________________________________
dropout_3 (Dropout)          (None, 32)                0         
_________________________________________________________________
dense_2 (Dense)              (None, 1)                 33        
=================================================================
Total params: 203,073
Trainable params: 203,073
Non-trainable params: 0
_________________________________________________________________
None
(98176, 32)
(98176, 199)
(98176, 199)
(24545, 199)
start fit RF:

0.98952943573

confusion_matrix:

[[17405   157]
 [  100  6883]]
('Precision:', 0.9776988636363636)
('Recall:', 0.9856795073750537)
