…
W tensorflow/core/common_runtime/bfc_allocator.cc:274] ***********************_____*********************************************************xxxxxxxxxxxxxxx
W tensorflow/core/common_runtime/bfc_allocator.cc:275] Ran out of memory trying to allocate 1.76GiB.  See logs for memory state.
W tensorflow/core/framework/op_kernel.cc:993] Resource exhausted: OOM when allocating tensor with shape[3692980,128]

confusion_matrix:

[[182990    249]
 [   501    909]]
('Precision:', 0.7849740932642487)
('Recall:', 0.6446808510638298)
_________________________________________________________________
Layer (type)                 Output Shape              Param #   
=================================================================
reshape_1 (Reshape)          (None, 5, 172)            0         
_________________________________________________________________
masking_1 (Masking)          (None, 5, 172)            0         
_________________________________________________________________
lstm_1 (LSTM)                (None, 5, 128)            154112    
_________________________________________________________________
dropout_1 (Dropout)          (None, 5, 128)            0         
_________________________________________________________________
lstm_2 (LSTM)                (None, 64)                49408     
_________________________________________________________________
dropout_2 (Dropout)          (None, 64)                0         
_________________________________________________________________
dense_1 (Dense)              (None, 32)                2080      
_________________________________________________________________
dropout_3 (Dropout)          (None, 32)                0         
_________________________________________________________________
dense_2 (Dense)              (None, 1)                 33        
=================================================================
Total params: 205,633
Trainable params: 205,633
Non-trainable params: 0
_________________________________________________________________
None
Traceback (most recent call last):
  File "LSTM_RF.py", line 204, in <module>
    layer_output_train = f_dense1([X_train])[0]
  File "/usr/local/anaconda/lib/python2.7/site-packages/keras/backend/tensorflow_backend.py", line 2103, in __call__
…
