…
I tensorflow/core/common_runtime/gpu/pool_allocator.cc:247] PoolAllocator: After 24321372 get requests, put_count=24321409 evicted_count=32000 eviction_rate=0.00131571 and unsatisfied allocation rate=0.00131641
35s - loss: 0.0225 - mean_absolute_error: 0.0124 - acc: 0.9915 - val_loss: 0.0382 - val_mean_absolute_error: 0.0166 - val_acc: 0.9874
After set  0
24192/24545 [============================>.] - ETA: 0s 
confusion_matrix:

[[17354   108]
 [  220  6863]]
('Precision:', 0.9845072442978052)
('Recall:', 0.9689397148101088)
_________________________________________________________________
Layer (type)                 Output Shape              Param #   
=================================================================
reshape_1 (Reshape)          (None, 5, 167)            0         
_________________________________________________________________
masking_1 (Masking)          (None, 5, 167)            0         
_________________________________________________________________
lstm_1 (LSTM)                (None, 5, 128)            151552    
_________________________________________________________________
dropout_1 (Dropout)          (None, 5, 128)            0         
_________________________________________________________________
lstm_2 (LSTM)                (None, 64)                49408     
_________________________________________________________________
dropout_2 (Dropout)          (None, 64)                0         
_________________________________________________________________
dense_1 (Dense)              (None, 32)                2080      
_________________________________________________________________
dropout_3 (Dropout)          (None, 32)                0         
_________________________________________________________________
dense_2 (Dense)              (None, 1)                 33        
=================================================================
Total params: 203,073
Trainable params: 203,073
Non-trainable params: 0
_________________________________________________________________
None
(98176, 32)
(98176, 199)
(98176, 199)
(24545, 199)
start fit RF:

0.992951721328

confusion_matrix:

[[17500    96]
 [   77  6872]]