…
I tensorflow/core/common_runtime/gpu/pool_allocator.cc:247] PoolAllocator: After 120822114 get requests, put_count=120822120 evicted_count=222000 eviction_rate=0.00183741 and unsatisfied allocation rate=0.00183781
285s - loss: 0.0115 - mean_absolute_error: 0.0055 - acc: 0.9966 - val_loss: 0.0171 - val_mean_absolute_error: 0.0057 - val_acc: 0.9959
After set  0
184448/184649 [============================>.] - ETA: 0s  
confusion_matrix:

[[183122    117]
 [   650    760]]
('Precision:', 0.8665906499429875)
('Recall:', 0.5390070921985816)
_________________________________________________________________
Layer (type)                 Output Shape              Param #   
=================================================================
reshape_1 (Reshape)          (None, 5, 172)            0         
_________________________________________________________________
masking_1 (Masking)          (None, 5, 172)            0         
_________________________________________________________________
lstm_1 (LSTM)                (None, 5, 128)            154112    
_________________________________________________________________
dropout_1 (Dropout)          (None, 5, 128)            0         
_________________________________________________________________
lstm_2 (LSTM)                (None, 64)                49408     
_________________________________________________________________
dropout_2 (Dropout)          (None, 64)                0         
_________________________________________________________________
dense_1 (Dense)              (None, 32)                2080      
_________________________________________________________________
dropout_3 (Dropout)          (None, 32)                0         
_________________________________________________________________
dense_2 (Dense)              (None, 1)                 33        
=================================================================
Total params: 205,633
Trainable params: 205,633
Non-trainable params: 0
_________________________________________________________________
None
layer_output_train.shape:  (1, 204) y_train.shape (1, 1)
1
10001
20001
30001
40001
50001
60001
70001
80001
90001
100001
110001
120001
130001
140001
150001
160001
170001
180001
190001
…
